…
&lt;div class=&quot;language-python highlighter-rouge&quot;&gt;&lt;div class=&quot;highlight&quot;&gt;&lt;pre class=&quot;highlight&quot;&gt;&lt;code&gt;&lt;span class=&quot;n&quot;&gt;model&lt;/span&gt;&lt;span class=&quot;o&quot;&gt;.&lt;/span&gt;&lt;span class=&quot;n&quot;&gt;summary&lt;/span&gt;&lt;span class=&quot;p&quot;&gt;()&lt;/span&gt;
&lt;/code&gt;&lt;/pre&gt;&lt;/div&gt;&lt;/div&gt;

&lt;div class=&quot;highlighter-rouge&quot;&gt;&lt;div class=&quot;highlight&quot;&gt;&lt;pre class=&quot;highlight&quot;&gt;&lt;code&gt;_________________________________________________________________
Layer (type)                 Output Shape              Param #   
=================================================================
conv2d_8 (Conv2D)            (None, 26, 26, 32)        320       
_________________________________________________________________
conv2d_9 (Conv2D)            (None, 24, 24, 64)        18496     
_________________________________________________________________
max_pooling2d_4 (MaxPooling2 (None, 12, 12, 64)        0         
_________________________________________________________________
dropout_7 (Dropout)          (None, 12, 12, 64)        0         
_________________________________________________________________
flatten_4 (Flatten)          (None, 9216)              0         
_________________________________________________________________
dense_7 (Dense)              (None, 128)               1179776   
_________________________________________________________________
dropout_8 (Dropout)          (None, 128)               0         
_________________________________________________________________
dense_8 (Dense)              (None, 2)                 258       
=================================================================
Total params: 1,198,850
Trainable params: 1,198,850
Non-trainable params: 0
_________________________________________________________________
&lt;/code&gt;&lt;/pre&gt;&lt;/div&gt;&lt;/div&gt;

&lt;div class=&quot;language-python highlighter-rouge&quot;&gt;&lt;div class=&quot;highlight&quot;&gt;&lt;pre class=&quot;highlight&q
…
